hand-gesture-recognition-mediapipe-main/model/keypoint_classifier/keypoint_classifier.tflite (tflite, 6808 bytes, 6 tensors)

sequential/dense/BiasAdd/ReadVariableOp f4 [20]
00000000: 5d2e 14bf 05db 84bf 9d3d 2dbf 756a b2be
00000010: 3bf7 b3bf 445e 34bf 869b c5be a798 8cbf
00000020: 48b1 96bf c44f 0abf 8a50 ab3e fb05 1bbf
00000030: aed5 0dbf 06cb bebd 5a02 c4be d825 833f
00000040: e1aa 64be 08d5 07bf e793 42bf 90cc 32bf
-0.57883245 -1.037934 -0.6767214 -0.34846845 -1.4059824 -0.7045634 -0.38595217 -1.0984086
-1.1772852 -0.5402796 0.33459884 -0.60556 -0.55404174 -0.093160674 -0.38283044 1.0245924
-0.2233081 -0.53059435 -0.7600693 -0.6984339

sequential/dense_2/BiasAdd/ReadVariableOp f4 [10]
00000000: 4df1 b8be c552 34be 6370 273f 7d83 49bf
00000010: 14f9 68bf d34c 883f af68 383f 497e dcbe
00000020: 276c b43d 5305 23bd
-0.36121598 -0.17609699 0.65405864 -0.7871626 -0.91005063 1.0648445 0.72034734 -0.43065098
0.08809691 -0.0398

sequential/dense_1/BiasAdd/ReadVariableOp f4 [10]
00000000: 5e11 133e 2c2f 2d3e df78 fb3e 0946 b4be
00000010: c7f6 603e ce82 c43e f6f8 203f 479e 7e3f
00000020: 6c03 563f 106e a73e
0.14362094 0.16912526 0.49115655 -0.35209683 0.21969138 0.38381046 0.62879884 0.9946026
0.8359897 0.3270116

sequential/dense/MatMul f4 [20, 42]
00000000: f81d d93d 80ce 3abc a848 073f c640 10bf
00000010: 2356 003f 81cd a3bb f697 b73e fcad 33be
00000020: f055 0b3f 431d 1bbe 5244 f0bd 4062 d4be
00000030: 0b4c fe3e 5464 62be 4146 f63e c43e 9f3d
00000040: d2fa d73e d046 323e a9e3 c2bd 09d1 3bbf
00000050: 72a9 d4bc 7f51 56bc b09b dfbe 9128 5d3e
00000060: 624a b2be 39c3 173e e779 af3e 62da 1abf
00000070: bbe2 003d 6ba1 f53c d9e5 cbbe 1576 2b3e
00000080: 919f 29be 6e31 253e 956a 3d3f 7613 56bf
00000090: 2b37 3c3e bb5c e03b eba8 9a3d 600f 6b3e
000000a0: 0ad8 bfbd 3ae4 253e 0081 bb3b 64ff 7ebe
000000b0: a74c c33f b083 6abf 8a14 683f 444b 2abf
000000c0: acc3 133f 08bd dbbe 963c 1b3f 517e 9abe
000000d0: e337 963e 9e9c 48be d791 1e3e 95b2 dabd
000000e0: 2c77 50be 9125 ef3d ca9a 98be 7eb4 3e3e
000000f0: 5f08 063e 6c33 cdbd e637 103e 4886 5fbd
00000100: 65d8 2bbd ff4c 49bc e35d 303c be5e 8fbd
00000110: e978 ed3d f6de afbd ddd9 503d 4d3e b2bd
00000120: 65cd 3dbd d50e fcbd b2c2 11be 3a22 51be
00000130: bd8e 2d3e 279f d1bc a82b 073e 473b cbbc
00000140: 9d4b 6dbd 4ce2 23bd f50c f8bd a684 15be
00000150: 9c56 4d3e e0d0 2dbe 0276 713d 718c a63d
00000160: 02c2 ef3b 756a 8bbe 4d74 423d ec4e 04bf
00000170: a6a2 a23d fc89 f7be ceb8 b3bd 28b2 e73d
00000180: c2af 603b cd63 243a cc99 5cbc 3f2c b1bd
00000190: 9dbf 813c eee1 13be 1b5a f9bd 7854 1b3e
000001a0: 8e88 8abc cee9 3bbe c5ab ecbd dfaa ddbc
000001b0: 7a96 08be dcd2 bf3e 0466 abbd d718 0e3e
000001c0: de94 56bc 8680 c7bd a5ff 93bd 4d82 8a3e
000001d0: bc4a c0bd 1eb8 8a3f 254a fd3c 869a 02be
000001e0: 4898 5a3d 0376 94bd 6c80 68bc 7578 e43e
000001f0: 3214 0abe 6db3 8c3f ca83 c1bd e465 8fbe
00000200: d130 44bc 2678 fa3e 11df 363d 251e 993e
00000210: 5bd4 3b3d 4dfb 7d3e 8b0c d53c e0b7 853e
00000220: 68a1 1dbd 8fa3 b53d 39e1 b8bb 6c31 e73d
00000230: cfd7 b63d 32d8 d53d 0997 573e 034b c5bf
00000240: 9446 9dbd 15fb 7c3d 80fe 01be b72d 063e
00000250: 2c1b debd a316 e53d a9c8 55bd 9436 693d
00000260: 2595 00bd e53f c23d a17a 0ebe d287 cf3d
00000270: 75bb fbbd a6d9 033d 2885 be3c ca7b a6bd
00000280: 0f1e d13d c3cf e83d ae6a 95bc 44aa a53d
00000290: b1bf 7b3d dc12 463c 13b3 5e3e e42b 03be
000002a0: 708d 8dbc a4b5 e93d 1f25 82bf 7061 c4be
000002b0: 632c 1cbf 6ab0 d9be 10f9 d9be 5957 1bbf
000002c0: 1e8b d8bd e424 babe cf37 c9be 61e6 22be
000002d0: 3e2a 2ebe e172 ebbc bce8 013e 3a0f 973d
000002e0: b23f 713e c41a aa3d eb7e c1be c1b1 bbbd
000002f0: 9e9f 9dbe 0053 0dbe 30d3 b83c b3c5 353d
00000300: 9036 183e e307 3b3d 6a6e 89be b12e cabd
00000310: c1dd 4dbe f2cf a8bd 0cd9 653d 332c 1f3d
00000320: c0f7 3d3e e3e0 8c3d 5dfe 00be 9ae4 a1bd
00000330: 61bd e5bd e0b6 10be 9fee d13d 0eec 933c
00000340: c7e3 0a3e 734c 173d e331 8ebe 6ce5 503e
00000350: 1040 133f 1f6d f93e 09e1 bd3e db7c 063d
00000360: 3a1a 043f e5dd b33c 1b06 703f 056a d13d
00000370: 1f1c cbbd c934 0bbe 36d3 0ebd cf7e 633c
00000380: 3594 80bc f3aa 573d b3f5 a7bb 11ce 1d3d
00000390: 879e 4bbc 12a3 41be d966 e7bd d451 cebd
000003a0: 9b6d c0bd 5577 73bd cb8d 0abe 8290 293b
000003b0: 7a6e 393e a40c 58be 539b 3ebe 1958 35bd
000003c0: f63c c6be b17d efb9 84bc 14bf 78ec b43a
000003d0: 54e0 d03e 0fb5 f6bc 6bf2 1abe dacb 8a3d
000003e0: 04c0 19bf 9b24 a13d 6146 6bbf 233c 6e3d
000003f0: d0f1 8f3c c06c 1abd b505 51be da29 553e
0.10601419 -0.0114017725 0.5284524 -0.56348836 0.50131434 -0.004998863 0.35858124 -0.17546839
0.54428005 -0.15147881 -0.11731781 -0.4148121 0.4966739 -0.22108585 0.48100474 0.077756435
0.42183548 0.17409825 -0.09516079 -0.7336584 -0.025959704 -0.013080954 -0.43673468 0.21597506
-0.34822375 0.14820565 0.34272692 -0.60489476 0.031466227 0.029984197 -0.39823797 0.16744263
-0.16564776 0.16132137 0.73990756 -0.83623445 0.1838042 0.006846992 0.0755175 0.22955084
-0.09367378 0.16200343 0.005722165 -0.24902111 1.5257767 -0.9160719 0.9065634 -0.66521096
0.57720447 -0.42917657 0.6063932 -0.30174497 0.29339513 -0.19590995 0.15485321 -0.10678593
-0.2035796 0.11677087 -0.29805595 0.1862354 0.13089131 -0.100195736 0.14083824 -0.05457142
-0.041954417 -0.012286424 0.010764572 -0.070004925 0.115953274 -0.08587448 0.05098902 -0.08703289
-0.046338458 -0.123075165 -0.14234427 -0.20423213 0.16948982 -0.025588585 0.13200247 -0.02480854
-0.05793344 -0.040010735 -0.12111846 -0.14601383 0.2005257 -0.1697421 0.05895043 0.08132256
0.0073168287 -0.27229658 0.047474194 -0.51682925 0.07941179 -0.4834746 -0.08775483 0.113132775
0.0034284447 0.0006270975 -0.013464402 -0.086510174 0.015838439 -0.14441654 -0.121753894 0.15168941
-0.016910817 -0.18350908 -0.115562 -0.027059017 -0.13338652 0.3746556 -0.08369067 0.13876663
-0.013097016 -0.09741311 -0.07226495 0.27052537 -0.093892545 1.0837438 0.030919144 -0.12754259
0.053367883 -0.072490714 -0.014190774 0.4462315 -0.13484266 1.0992256 -0.09448965 -0.28007424
-0.011974529 0.4891979 0.044646326 0.2990581 0.045856815 0.24802895 0.026006958 0.26116848
-0.038484007 0.08869087 -0.005642083 0.11288723 0.08927881 0.104416266 0.21053709 -1.5413517
-0.07679477 0.061762888 -0.1269474 0.13103376 -0.108450264 0.11185958 -0.052193318 0.056936815
-0.031392235 0.09484843 -0.13913967 0.101333275 -0.12291614 0.032189988 0.023256853 -0.0812908
0.10210811 0.113677524 -0.018239345 0.08089116 0.061462108 0.012089457 0.21747999 -0.12809712
-0.017279357 0.11411598 -1.0167578 -0.3835559 -0.6100523 -0.42517406 -0.42572832 -0.60680157
-0.105734095 -0.3635627 -0.3930039 -0.15908195 -0.17008302 -0.028741302 0.12686437 0.07375951
0.23559454 0.083058864 -0.37792143 -0.09164763 -0.3078584 -0.13801193 0.02256164 0.044377994
0.14864564 0.04566182 -0.26842052 -0.09872187 -0.20104124 -0.082427874 0.056115195 0.03886051
0.1855154 0.06878831 -0.12597032 -0.079049304 -0.11217762 -0.14132261 0.102505915 0.018056896
0.13563453 0.036938142 -0.27772436 0.20400017 0.57519627 0.48716065 0.3708575 0.032833915
0.5160252 0.021956393 0.93759316 0.102253 -0.09917473 -0.13594355 -0.034869395 0.013885214
-0.01569567 0.052653264 -0.005125725 0.0385266 -0.012427933 -0.18909863 -0.112989135 -0.10074201
-0.093959056 -0.059439976 -0.13530652 0.0025873487 0.1810855 -0.21098572 -0.18613939 -0.04427347
-0.38718385 -0.0004567928 -0.5810015 0.0013803383 0.4079615 -0.030115632 -0.15131538 0.06777163
-0.6005862 0.0786831 -0.91904265 0.05816282 0.01757136 -0.03770137 -0.20412333 0.20816746

sequential/dense_1/MatMul f4 [10, 20]
00000000: 6faa 6d3e d57e fe3d 40df 203f 4e99 313f
00000010: 321f fbbe 12a5 713e dc8c 5a3f 304e da3e
00000020: bcb6 f8be 7f1f c03e d6a7 783e 6b72 053f
00000030: 8582 d93e 1066 e63e 00ee db3e ca61 a93e
00000040: 824d 0c3f e8ac 993f b8f4 1a3f 43d0 09bf
00000050: 9e83 1c3f 17b2 0a3f a39a 8a3e 8a19 143e
00000060: a481 883e ab89 4a3f c29e 68bd 2fae 083e
00000070: 7da0 4cbf fbc6 113e ed3e 473f 0635 3cbc
00000080: 06e9 263f 477c 3d3f b4f1 1b3e a3ee 433f
00000090: 4bbc 0f3f ab95 73be 0ce4 9bbd 17ed af3e
000000a0: 4d98 b1bf 618c aebf 89d9 2ebe fddd 54bf
000000b0: b9dc c23e c5b8 573e f728 703e 3587 bebf
000000c0: 3c8e cfbd e46d d53e 15e1 a6bf 855a db3d
000000d0: bb6c 88bc 4aca 883e d8af 273f 996e d2bd
000000e0: 8dc5 033e e478 c8be 5266 c13e 5353 1bbe
000000f0: 8c19 743d 9f6b 2b3f eb63 ba3f cdf2 1f3d
00000100: 572a af3e c13a d33f 940b 06be 16e3 a4be
00000110: 02f1 6bbc 6bcc 9d3f 0a3c 2e3e b16c 8a3d
00000120: 5849 85bf f682 043f ec24 9c3f b230 c13e
00000130: 111c 273b aedc e53d b8ab 383f ef91 0ebf
00000140: 4d3c 5d3e c01c 07c0 4a9d 123f cf05 19c0
00000150: 65ac 9b3f ed5d 393f c5bd f33e f8f2 583f
00000160: 1c66 8cbe 09cd bcbe 8e1c 703e 7f2d 5f3e
00000170: 5578 0a3f a79d c7be 1aee 8ebe 82c7 bbbe
00000180: dba5 30bf e233 6cbf 093b 0a3f f1e6 2d3f
00000190: e081 51be 76a3 833f 275e 91be 6cd8 07be
000001a0: 8a72 043c 3ad0 743e a799 f03e d655 723f
000001b0: b7d5 333d 7411 4bbb 8afe 243f 0c28 243f
000001c0: a46d 22be 0102 5dbe 4ae2 f03d c336 563e
000001d0: 8be9 ec3e 3825 14be e20b 833f 8ed3 b83f
000001e0: d90a 3f3f 0cfa 12bf ca79 1cbf 9259 c6be
000001f0: 1e79 173f 12b4 f6bd b45c bb3e 3577 ce3e
00000200: 499b ae3f 73da 1abe f89e 8dbe df5c 9f3d
00000210: 1198 813e 7f37 a03e 5cea 66be 2a1c 3b3f
00000220: 9cca 753e d565 06bf 06ac a3be 734e 833e
00000230: ad7b 1d3f cc13 b93e 29c8 18be 1a95 763f
00000240: 9e06 9d3e 6d95 f6be 6135 adbf 4ea7 30bf
00000250: ecdc be3d 8290 853d 8cd4 093f 96a9 dcbf
00000260: f73a 5abf c436 213f 4bac 2dbe 7dc2 0e3f
00000270: a682 cb3e 625d d4bf 7586 edbf e729 833d
00000280: cc44 b8ba f03d a4be 06e8 bf3d 1810 843e
00000290: c654 1b3d 7055 503d 4514 02c0 f1a9 563d
000002a0: 7466 2c3e 22cd a7bd 33b0 c5be 85fe 573e
000002b0: 642c d53e b6f9 133f 1954 e6be 7f6c ff3d
000002c0: a3b5 2d3e d460 f43e cbe3 07bd fd27 70bf
000002d0: 8b29 f43e c92d 043f 7fcb 7a3f 87db a2bd
000002e0: deeb 623f e320 193f 2d84 7dbd 6c19 093d
000002f0: 5cc7 6d3f 5db6 883f 819c 37be a2b1 29bd
00000300: c266 98bd a23d 913d 7ea8 903f b2cb ebbe
00000310: 5307 a33f 62a7 b5be 4740 16bd 009e 193e
0.23209547 0.12426535 0.6284065 0.6937455 -0.49047238 0.23598126 0.85371184 0.42637777
-0.48576915 0.3752403 0.24282774 0.5212771 0.4248239 0.44999743 0.42955017 0.3308242
0.5480577 1.2005892 0.6052966 -0.5383341 0.6113833 0.54177994 0.27071103 0.14462867
0.26661408 0.79116315 -0.05679203 0.13347696 -0.79932386 0.14236061 0.7783039 -0.011487251
0.65199316 0.7401776 0.15228921 0.76536006 0.5614669 -0.23787563 -0.07611856 0.34360573
-1.3874604 -1.363659 -0.1707517 -0.8315123 0.38059023 0.21066578 0.23453127 -1.4885012
-0.10134551 0.41685402 -1.303744 0.107106246 -0.01665341 0.26716834 0.6550269 -0.10275001
0.12868328 -0.39154732 0.37773377 -0.15168504 0.059594676 0.6696109 1.4561743 0.039049912
0.3421199 1.6502305 -0.13090354 -0.32204503 -0.014400722 1.2328008 0.1701509 0.067590125
-1.0413008 0.5176233 1.2198768 0.37732464 0.0025498907 0.11223732 0.7213702 -0.55691427
0.21605034 -2.1111298 0.57271254 -2.3909795 1.2161986 0.72408944 0.4760572 0.8474574
-0.27421653 -0.3687518 0.23448393 0.21794699 0.5408986 -0.38987467 -0.27916032 -0.3667565
-0.69003075 -0.92266667 0.5399633 0.67930514 -0.204597 1.0284259 -0.28392145 -0.13266152
0.008083949 0.23907557 0.46992227 0.94662225 0.043904986 -0.0030985745 0.64450896 0.64123607
-0.15862137 -0.21582796 0.11761911 0.20919327 0.4627193 -0.14467323 1.0238001 1.4439561
0.7462593 -0.5741279 -0.61123335 -0.38740212 0.59169185 -0.120460644 0.36594164 0.40325323
1.3641139 -0.15122394 -0.27660346 0.07781386 0.2531133 0.3129234 -0.22550339 0.7308985
0.2400307 -0.52499133 -0.3196718 0.2564579 0.6151684 0.36147916 -0.14920105 0.9632126
0.3066911 -0.48160878 -1.3531915 -0.69005287 0.09319481 0.06521703 0.53839946 -1.7239254
-0.85246223 0.6297419 -0.16960256 0.55765516 0.39748114 -1.6590998 -1.8556658 0.064044766
-0.0014058589 -0.32078505 0.09370427 0.2579353 0.037922643 0.05086273 -2.0324872 0.052408163
0.16835958 -0.08193423 -0.38610992 0.21093185 0.4163543 0.57802904 -0.44986036 0.12471866
0.1696382 0.47730124 -0.033176225 -0.9381102 0.47687945 0.5163236 0.9796676 -0.07952028
0.88641155 0.59815806 -0.06189363 0.03347151 0.92882323 1.0680653 -0.17930795 -0.04142917
-0.074414745 0.07091834 1.130142 -0.46053845 1.273661 -0.35479265 -0.036682393 0.15001678

sequential/dense_2/MatMul f4 [10, 10]
00000000: 65ec 7f3f 4b33 323f 8b80 ebbe ea8c 9a3e
00000010: ba6c 193c da5f d63d 5aa7 5f3c 211d 34bf
00000020: 7d54 bc3e f0f6 db3d 8fa2 40bf 2427 633f
00000030: c823 dabd fe4e 6ebe 3f72 5c3e 79da 243f
00000040: 9463 4d3f 75ec cfbe 88ff e9be 2485 3a3f
00000050: 6bd0 e8be b32e 2d3e 4ed4 673b 395c 81bf
00000060: e3b7 f3be 4aa4 663e 1891 053f 692c 7f3f
00000070: ee00 173e aa5d b5bd fed5 b8bd 716a 6bbf
00000080: 737d 8c3f ad66 78bf eb70 993f 73a3 e93e
00000090: dc93 bf3e ab8c 9cbf 7832 443f 4c7c dcbf
000000a0: 07ba 92bf d02b 83be 86a0 00c0 c44c 57bf
000000b0: a024 4fbf 3b61 b0bf 2ebd c3bf b4c3 babf
000000c0: 6b69 f6bf a3d0 71bf 9d18 2b3e fa3e 05c0
000000d0: 7569 cdbf 09ff 5ac0 9301 99bf bcbb 72be
000000e0: 6219 713d 8244 18bf 63a4 cd3f 4979 99bf
000000f0: 7deb 243f e6e7 d7bf 5f34 3bbf 0df8 93bf
00000100: c73d 76be 49dd 0a3f 0b3d c7be 3513 58bf
00000110: c6d5 303e 9fe4 d0bf 3d5b 8bbf 1fbf 6ebf
00000120: 8563 8d3e 2853 1c3f ea04 0a3f 4a15 2ac0
00000130: 9805 523e a417 c7be 457f 70bd 8efb 293f
00000140: 3582 c9be 1549 74be dc15 fd3e 21b0 043f
00000150: 1d39 b83e afc1 51be 405e afbf 22d1 8ebf
00000160: 9099 d13e 7318 4f3e 8f3f 963e 5ab3 69bd
00000170: 709c d0bf bed4 dabe 28bf 51be 0384 893f
00000180: 1550 bdbf abe1 4bbf 5b97 4ebf c5ad 3ebf
0.99970084 0.69609517 -0.45996508 0.30185634 0.009364301 0.10467501 0.01365074 -0.7035695
0.3678321 0.10740459 -0.75248045 0.887316 -0.10651356 -0.2327232 0.21527956 0.6439586
0.8023007 -0.4061009 -0.45702767 0.72859406 -0.4547151 0.16912346 0.0035374346 -1.0106269
-0.47601232 0.22523609 0.5217452 0.9967714 0.14746448 -0.088557556 -0.09025191 -0.9195929
1.0975784 -0.9703167 1.1987585 0.45632514 0.37417495 -1.2230428 0.7663951 -1.7225432
-1.1463021 -0.25619364 -2.0097976 -0.8410151 -0.8091526 -1.3779672 -1.5292108 -1.4590974
-1.9250921 -0.9445898 0.16708608 -2.0819688 -1.6047808 -3.421816 -1.1953605 -0.23704427
0.058862098 -0.59479535 1.6065792 -1.1990138 0.64421827 -1.6867645 -0.73126787 -1.1560074
-0.24047004 0.54243904 -0.3891376 -0.8440431 0.17269048 -1.631977 -1.0887219 -0.9326038
0.2761499 0.61064386 0.5391375 -2.6575494 0.20509946 -0.38885224 -0.058715124 0.66399467
-0.39357153 -0.23856004 0.4943074 0.5183125 0.35981074 -0.2048404 -1.3700638 -1.1157572
0.4093747 0.2022417 0.29345366 -0.05705581 -1.6297741 -0.42740434 -0.20483077 1.0743412
-1.4790064 -0.79641217 -0.806997 -0.744839
